results/last.pt (torch, 713635 bytes, 22 tensors)

PE.cls_token f4 [1, 48]
0	0x3f264053	0.649419
1	0xbb7111d4	-0.0036784308
2	0x3f155240	0.5832863
3	0x3f1d4290	0.6142969
4	0x3f5984df	0.8496837
5	0xbced07a2	-0.028934304
6	0x3f59c09a	0.8505951
7	0x3eb67d5b	0.35642514
8	0x3ef97481	0.48721698
9	0x3ecccf6b	0.40001997
10	0x3f081502	0.53157055
11	0x3d298d26	0.041394375
12	0x3f5a6deb	0.8532397
13	0x3ea278f3	0.31732902
14	0x3f62b0bc	0.88550925
15	0x3eb0bd35	0.34519354
16	0x3f16e100	0.5893707
17	0x3ee47a1b	0.4462441
18	0x3f1b10fd	0.605728
19	0x3ed9b32b	0.42519507
20	0x3e2661bd	0.16248222
21	0x3e8f6fa7	0.2801487
22	0x3d2a4eb4	0.041578963
23	0x3dbcc7a1	0.09217764
24	0x3ec01892	0.37518746
25	0x3c1c1a9d	0.0095278295
26	0x3f42ece5	0.7614272
27	0x3f5454ca	0.8294188
28	0x3d04f3e1	0.032459144
29	0x3f0fa106	0.5610508
30	0x3e349ac5	0.17637165
31	0x3f7357f8	0.95056105
32	0x3f5334d1	0.82502466
33	0x3e938858	0.2881496
34	0x3e8639af	0.26215884
35	0x3e765751	0.24056746
36	0x3f09953a	0.53743327
37	0x3da3c807	0.079971366
38	0x3e9b04d5	0.30277124
39	0x3f728ca5	0.94745857
40	0x3df0bb98	0.11754531
41	0x3f2749fc	0.65347266
42	0x3f3ed736	0.74547136
43	0x3efd0117	0.49414894
44	0x3f7e3e98	0.9931426
45	0x3e9e27bc	0.3088969
46	0x3e32e109	0.17468657
47	0x3f6c0721	0.9219838

PE.position_token f4 [17, 48]
0	0x3e6be093	0.23034887
1	0x3f470f95	0.7775815
2	0x3e53e662	0.20693353
3	0x3e9fc491	0.31204656
4	0x3f25475e	0.6456202
5	0x3f5cecce	0.86298835
6	0x3e08f78f	0.13375686
7	0x3c9ec6eb	0.01938196
8	0x3f8161b8	1.0107946
9	0x3f31ff97	0.69530624
10	0x3f7162a3	0.9429113
11	0x3e5870f1	0.21136834
12	0x3f6f8093	0.93555564
13	0x3f6a2976	0.91469514
14	0x3f4c6751	0.7984515
15	0x3f4060e8	0.7514787
16	0x3f2b37d4	0.6688206
17	0x3e9de465	0.30838314
18	0x3e011ab3	0.12607841
19	0x3e3d32c4	0.18476397
20	0x3f13a7cf	0.5767793
21	0x3f801734	1.0007081
22	0x3e87f2c6	0.2655241
23	0x3d4a1028	0.049331814
24	0x3f1ce6a0	0.61289406
25	0x3f6c6509	0.9234167
26	0x3ee0170d	0.43767586
27	0x3f2ed0d8	0.6828742
28	0x3f1a333c	0.6023443
29	0x3e067611	0.13130976
30	0x3e54b159	0.20770778
31	0x3f646bc6	0.8922695
32	0x3f1d4450	0.6143236
33	0x3f6a2592	0.9146358
34	0x3f6c8804	0.92395043
35	0x3f310e20	0.6916218
36	0x3f41f21f	0.7576007
37	0x3f4829b1	0.78188616
38	0x3f5539de	0.83291423
39	0x3d9ba439	0.07599682
40	0x3dbdb2c0	0.092626095
41	0x3e1a798f	0.15085433
42	0x3f378d92	0.71700394
43	0x3f0406a9	0.5157266
44	0x3e54fdc9	0.20799936
45	0x3f234af8	0.6378627
46	0x3f0b4a14	0.5440991
47	0x3f504422	0.8135396
48	0x3e8faaf9	0.2806013
49	0x3ef18bcb	0.47176966
50	0x3f15130f	0.58232206
51	0x3ecf28f4	0.40460932
52	0x3f087570	0.53304195
53	0x3f1b21cc	0.60598445
54	0x3f7266f8	0.9468837
55	0x3f3f2f4e	0.74681556
56	0x3f1e2724	0.61778474
57	0x3ef53320	0.47890568
58	0x3ea0a8d3	0.31378803
59	0x3e7c65f6	0.2464827
60	0x3f62fb03	0.88664263
61	0x3f2e50df	0.6809215
62	0x3f706e67	0.9391846
63	0x3e1c674d	0.15273781
64	0x3e6888b0	0.22708392
65	0xbdb048b3	-0.08607616
66	0x3e8c4fc8	0.27404618
67	0x3f58e55d	0.8472498
68	0x3f2373ef	0.63848776
69	0x3f14f85d	0.5819147
70	0x3e05ed00	0.1307869
71	0x3e84e46f	0.2595553
72	0x3f5fb189	0.8738027
73	0x3f1d98ce	0.61561286
74	0x3f45da8e	0.77286613
75	0x3ee0e5bb	0.4392527
76	0x3f5ca2ac	0.8618572
77	0x3f65eb8c	0.8981254
78	0x3f30209b	0.6879975
79	0x3d8e092d	0.06935344
80	0x3ea27dc1	0.31736568
81	0x3e9df205	0.3084871
82	0x3f2df941	0.67958456
83	0x3f7294d5	0.9475835
84	0x3f6c6db4	0.92354894
85	0x3f0a88f2	0.5411521
86	0x3e1188ec	0.14212388
87	0x3f05eeed	0.52317697
88	0x3e2acac9	0.16678919
89	0x3f5e1a05	0.8675845
90	0x3efdc96d	0.49567738
91	0x3e2f7327	0.17133771
92	0x3e03c2bb	0.12867253
93	0x3f21278e	0.6295098
94	0x3f342308	0.70365953
95	0x3f0e2a6e	0.5553349
96	0x3f364e06	0.71212804
97	0x3f827200	1.019104
98	0x3f55add4	0.83468366
99	0x3f8a1243	1.0786823
100	0x3e8a81a8	0.27052045
101	0x3f75eda3	0.9606573
102	0x3f822c8a	1.0169842
103	0x3eefbf33	0.4682556
104	0x3f7a2af5	0.977218
105	0x3f9e47d4	1.236567
106	0x3f3a1dee	0.7270192
107	0x3e94e660	0.29082012
108	0xbd441c97	-0.047878828
109	0x3f0ff4d6	0.56232965
110	0x3f6af303	0.91777056
111	0x3ec4c35a	0.3843029
112	0x3f8b86b6	1.0900486
113	0x3e7cba01	0.2468033
114	0x3e9af322	0.3026362
115	0xbe02f899	-0.12790145
116	0x3f49474c	0.78624415
117	0x3f63c42b	0.88971204
118	0xbea95d83	-0.33079156
119	0x3ecbd5cc	0.39811552
120	0x3f6a4c3b	0.9152257
121	0x3eeb514e	0.45960468
122	0x3ea43e7d	0.32078925
123	0x3f1486a2	0.58017933
124	0x3eac2534	0.33622134
125	0x3eb4bfc2	0.3530255
126	0x3f74cf36	0.9562868
127	0x3e5b9218	0.21442449
128	0x3e84c36d	0.25930348
129	0x3f2127d2	0.62951386
130	0x3f9ef041	1.241707
131	0x3f282efc	0.6569669
132	0xbd9abfb8	-0.07556099
133	0x3e27d833	0.16391067
134	0x3f06c06c	0.5263736
135	0x3e4b7932	0.19870451
136	0x3f035504	0.513016
137	0x3f0eccaf	0.5578107
138	0x3f41c3eb	0.7568957
139	0x3f416010	0.75537205
140	0x3f7e7ad9	0.994062
141	0x3f78df3e	0.9721564
142	0x3f22303d	0.63354856
143	0x3ec20392	0.3789335
144	0x3d980487	0.074227385
145	0x3e628982	0.22122768
146	0x3e6eb484	0.23311049
147	0x3f33b3f7	0.7019648
148	0x3d966169	0.07342798
149	0x3f25edee	0.64816177
150	0x3ea203f4	0.3164364
151	0x3f4188c5	0.7559932
152	0x3f3f377a	0.74694026
153	0x3f448cb8	0.7677722
154	0x3e420932	0.1894882
155	0x3f89a299	1.0752746
156	0x3f5d8478	0.86530256
157	0x3d5ac79d	0.053413022
158	0x3f70d7bc	0.94079185
159	0xbd3fd121	-0.0468303
160	0x3ed3e790	0.41387606
161	0x3f2b10e0	0.66822624
162	0x3f4cc82a	0.79992926
163	0x3ddea410	0.10871136
164	0x3eb6c8b8	0.3570001
165	0x3f356166	0.70851743
166	0x3f001182	0.50026715
167	0x3ecd049b	0.40042576
168	0x3e730c7d	0.23735233
169	0x3db53a7e	0.08849047
170	0x3ee0abf9	0.43881205
171	0x3f576391	0.841363
172	0x3f302258	0.68802404
173	0x3f7bc5bc	0.98348594
174	0x3d49699a	0.049172975
175	0x3f25f2a7	0.64823383
176	0xbd7ea0ef	-0.062165197
177	0x3f067ff6	0.52539
178	0x3f44a87a	0.76819575
179	0x3f5e986f	0.86951345
180	0xbd08e1f9	-0.03341863
181	0x3f4e2793	0.80529135
182	0xbc08331e	-0.008312969
183	0x3f00e2fc	0.5034635
184	0x3f750ec3	0.9572565
185	0x3edd8069	0.43262032
186	0x3e88d1ed	0.2672266
187	0x3f3a076c	0.72667575
188	0x3e8562e9	0.26052025
189	0x3f48049c	0.78132033
190	0x3f3d2712	0.7388774
191	0x3eb1fee2	0.34764773
192	0x3cc018fb	0.023449412
193	0x3e488451	0.19581725
194	0x3f3c2f3e	0.73509586
195	0x3f66fd37	0.90230125
196	0x3f208777	0.627067
197	0x3f143116	0.578874
198	0x3f007edf	0.5019359
199	0x3f581ef0	0.84422207
200	0x3f2be3fa	0.6714474
201	0x3e45761c	0.19283336
202	0x3f30219b	0.6880128
203	0x3e910fd1	0.2833238
204	0x3f085cfb	0.53266877
205	0x3f09a68e	0.5376977
206	0x3f159450	0.5842943
207	0x3dde36e0	0.1085031
208	0x3ed796d9	0.42107275
209	0x3f0e4df3	0.5558769
210	0x3eadff11	0.33983663
211	0x3f05c5a8	0.52254725
212	0x3ef8579d	0.48504344
213	0x3ee55435	0.44790807
214	0x3de80602	0.11329271
215	0x3ddaf0a4	0.1069043
216	0x3eea6a11	0.45784047
217	0x3f485650	0.782567
218	0x3f1b0f9f	0.6057071
219	0x3f64f6e6	0.8943924
220	0x3ec82775	0.39092603
221	0x3f4c8ee6	0.79905546
222	0x3e067e51	0.13134123
223	0x3f7a7696	0.978372
224	0x3ebbfc14	0.36715758
225	0x3f82582a	1.0183156
226	0x3f4a7b52	0.7909442
227	0x3e54124b	0.20710103
228	0x3eeae75c	0.45879638
229	0x3f143439	0.57892185
230	0x3f5abff5	0.85449153
231	0x3ea0ad8f	0.31382415
232	0x3f53ba02	0.827057
233	0x3f47302a	0.7780787
234	0x3e8da376	0.27663773
235	0x3e9368c0	0.28790855
236	0x3f067fae	0.52538574
237	0x3e9587bd	0.29205123
238	0x3f193f08	0.59861803
239	0x3e3f83f6	0.18702683
240	0x3f71e6d1	0.9449282
241	0x3e2345d6	0.15944609
242	0x3f209c4d	0.62738496
243	0x3f5b799f	0.85732454
244	0x3e32d95c	0.17465729
245	0x3f33215a	0.69972765
246	0x3ed6856d	0.4189867
247	0x3f5c1f7f	0.8598556
248	0x3f369992	0.7132808
249	0x3f0397f6	0.5140375
250	0x3f6ed897	0.9329924
251	0x3dd0443f	0.10169267
252	0x3f2d9b0a	0.67814696
253	0x3f0e804a	0.55664504
254	0x3f85085b	1.0393175
255	0x3f4367c3	0.763302

PE.patch_embed.0.weight f4 [48, 3, 32, 32]
0	0x3bbfdb9b	0.0058550364
1	0x3ca0468c	0.01956489
2	0xbb82a3c6	-0.0039868085
3	0x3b2de984	0.0026536891
4	0x3aa02033	0.0012216627
5	0xbbade002	-0.005306245
6	0x3c9f1b95	0.019422332
7	0x3c3fc58a	0.011704812
8	0xbba02fad	-0.004888496
9	0xbc36a5ca	-0.011147926
10	0x3c9a9545	0.018870005
11	0x39b000ee	0.0003357003
12	0xbb6f0db5	-0.0036476676
13	0x3c48f9a3	0.012266549
14	0x3ced6aa0	0.028981507
15	0x3c0e095d	0.008669225
16	0xbb9e4eb2	-0.0048311586
17	0x3b978ed7	0.004625182
18	0x3c20016f	0.009765967
19	0x3c9a423a	0.018830407
20	0x3c9bb62e	0.019007768
21	0xbaaa111e	-0.0012975072
22	0x3cc8fbdf	0.024534164
23	0x3c580536	0.013184836
24	0x3c146f40	0.009059727
25	0xbb6b9863	-0.0035948984
26	0x3b87d76f	0.0041455547
27	0x3c2c7791	0.010526554
28	0xbcb908a2	-0.022587124
29	0xbca10ca4	-0.019659348
30	0xbb99cd2d	-0.0046936483
31	0xbc2b5ec3	-0.010459605
32	0x3c332efc	0.010936495
33	0xbb75c8e4	-0.0037503773
34	0xb9d5f3f4	-0.00040808285
35	0xbc406673	-0.011743176
36	0xba15deef	-0.00057171186
37	0xbbff3010	-0.007787712
38	0x3c216971	0.009851799
39	0xbc492337	-0.012276462
40	0xbc6514a6	-0.013981974
41	0xbc7837bb	-0.015150006
42	0x3c2927ce	0.010324432
43	0xbc02149f	-0.007939487
44	0x3c6d4671	0.014482127
45	0x3b9bf640	0.00475958
46	0x3ba6a311	0.005085357
47	0x3cb556b8	0.022136077
48	0xbbed82fd	-0.007248281
49	0x3c5fea5c	0.0136667155
50	0x3ba95bf1	0.005168431
51	0x3c11fd13	0.008910435
52	0x3ada2b7f	0.0016645043
53	0x3bff1086	0.007783952
54	0x3bc90d7f	0.006135642
55	0x3b86e444	0.004116567
56	0x3a8db35a	0.0010810897
57	0x3c68cae8	0.014208533
58	0xbc9d84e9	-0.019228416
59	0x3b92ad2a	0.004476209
60	0x3b8eaddf	0.004354223
61	0xbc90e3e7	-0.017686797
62	0xba03f6d8	-0.0005034036
63	0xbc631fd8	-0.013862573
64	0x3c6452ae	0.013935728
65	0x3cb1c049	0.021698134
66	0x3a3b2826	0.00071394665
67	0x3c656b2b	0.014002602
68	0x3c89e7a7	0.016834093
69	0x3b0aef9e	0.0021199952
70	0x3bea9763	0.00715916
71	0x3bb5ada4	0.005544381
72	0x3c054d2e	0.008136077
73	0xbc2f17e8	-0.010686852
74	0x3c954227	0.01822002
75	0xbbb888ec	-0.0056315567
76	0x3caa1eaa	0.020766575
77	0xbb9f35bf	-0.004858702
78	0x3cb36c63	0.021902269
79	0x3c5f7d22	0.013640674
80	0x3a922ae6	0.0011151701
81	0x3c9a6bc3	0.018850213
82	0x3ca0212e	0.019547071
83	0x3c0f885c	0.008760538
84	0x3c410a5a	0.011782253
85	0xba565a4f	-0.0008176909
86	0xbc1719c6	-0.009222453
87	0x3b0aa628	0.0021156166
88	0xbc06eaf8	-0.008234732
89	0xbb3c98a8	-0.0028777514
90	0xbca7ab64	-0.020467468
91	0x3c42e732	0.011895942
92	0xbac50e4d	-0.0015034169
93	0xbaf58eb0	-0.0018734541
94	0x3b016f14	0.0019750046
95	0xbc22d104	-0.0099375285
96	0xbc0ad951	-0.008474664
97	0x3c687279	0.014187449
98	0xbc910248	-0.017701283
99	0xbc1aa83f	-0.009439527
100	0x3b37047a	0.0027926252
101	0xbc48d712	-0.012258308
102	0xbc032fa3	-0.008006963
103	0xbb828afd	-0.003983854
104	0xb9feb09c	-0.0004857824
105	0x3b4adce9	0.0030954427
106	0xbc81b357	-0.015832586
107	0x3c009e01	0.007850171
108	0x3c86fe04	0.016478546
109	0x3b260f3e	0.0025338675
110	0xbb11016d	-0.0022126094
111	0x3caaabee	0.020833936
112	0x3b825c0c	0.003978258
113	0xbb514d8f	-0.0031937098
114	0xbbc2ff73	-0.005950862
115	0xbbac4012	-0.005256661
116	0x3c0388db	0.008028234
117	0x3b91abf4	0.0044455472
118	0xbc01c6d5	-0.00792094
119	0xbb809144	-0.003923567
120	0xbc63541a	-0.013875032
121	0xbc93a6a3	-0.018023795
122	0xbc826389	-0.015916603
123	0xbc485535	-0.012227346
124	0xbc4de82f	-0.012567564
125	0x3bed1736	0.007235433
126	0x3b9ac4e7	0.0047231796
127	0xbc6b2db2	-0.014354156
128	0x3c26fd0d	0.010192168
129	0xbb10730f	-0.0022041237
130	0xbaa01238	-0.0012212461
131	0x3c8c97da	0.017162252
132	0x3c2d9573	0.0105947135
133	0xbc5bec69	-0.013423064
134	0x3b2b240f	0.0026114022
135	0xbcab64a1	-0.020922007
136	0x3be652cb	0.0070289127
137	0x3c4adee7	0.012382246
138	0xbc967962	-0.018368427
139	0xbc42c7ea	-0.011888484
140	0xbb302fe5	-0.0026884016
141	0xbbba86e9	-0.005692352
142	0xbc364540	-0.011124909
143	0x3bcb87be	0.00621125
144	0xbc0a75b6	-0.008450916
145	0x3ca1d6d8	0.019755766
146	0xbc25e8bc	-0.010126289
147	0x3c9fa56c	0.019488059
148	0x3c3c0e7a	0.011478061
149	0x3cb4d670	0.022074908
150	0x3c2849b5	0.010271479
151	0xbb432713	-0.0029777929
152	0x3c74cbab	0.014941136
153	0xbc1db963	-0.009626719
154	0x3c17d75f	0.009267657
155	0xbc9f22d4	-0.019425787
156	0xbb03a65c	-0.0020088172
157	0xbcb3930e	-0.021920707
158	0xbcc7c0cf	-0.02438393
159	0xbcde6fdd	-0.02715295
160	0x390603c1	0.00012780634
161	0xbc12a9b9	-0.008951598
162	0x3c72a567	0.014809943
163	0x3b83460b	0.0040061525
164	0xbc4aa375	-0.012368073
165	0xba39ad21	-0.0007082988
166	0x3c241ead	0.010017079
167	0xbc81be68	-0.015837863
168	0x3bbabda7	0.005698878
169	0x3c901221	0.01758677
170	0xbc157e8d	-0.00912441
171	0x3c99b7f5	0.018764475
172	0xbba61347	-0.005068216
173	0x3bad0bce	0.0052809482
174	0xbc01c203	-0.007919791
175	0x3a145f9e	0.000566
176	0x3c9f5489	0.01944949
177	0xbc3315ad	-0.010930461
178	0x3bb641e5	0.0055620545
179	0x3b654d39	0.0034988655
180	0xb93f3ee5	-0.0001823861
181	0x3c5924c3	0.013253394
182	0x3ad31c2f	0.0016106422
183	0x3cbeeefd	0.023307318
184	0xbbbfe6ae	-0.0058563566
185	0xb9089275	-0.0001302453
186	0x3c6633aa	0.014050404
187	0xbc2e188e	-0.0106259715
188	0xbc1b7277	-0.00948774
189	0xbc601c3e	-0.013678608
190	0x399a2094	0.00029397442
191	0x3b913be9	0.0044321907
192	0x3c3b717c	0.011440631
193	0x3b8cd694	0.0042980406
194	0x3bc299f4	0.005938763
195	0xbbea00f5	-0.0071412274
196	0xbbca53f3	-0.0061745583
197	0x3b8109b8	0.003937926
198	0xbbe011a0	-0.0068380386
199	0x3c7c65d2	0.015405135
200	0x3c0dc1f1	0.008652196
201	0xbbce82d7	-0.0063022184
202	0xbc26d96e	-0.010183675
203	0xbb634a4e	-0.003468174
204	0x3b1ff94c	0.0024410067
205	0x3c099914	0.008398313
206	0x394c1edf	0.00019466456
207	0xbc270b50	-0.010195568
208	0x3b644fe5	0.003483766
209	0x3c02da7a	0.007986659
210	0xbc256625	-0.010095154
211	0xba49c39e	-0.0007696691
212	0xba7f9aa1	-0.00097505195
213	0x3ab3383c	0.0013673375
214	0x3c94837f	0.018129108
215	0x3c052280	0.008125901
216	0x39ba9b3e	0.0003559235
217	0xbbf01054	-0.007326165
218	0xbc5471f7	-0.012966624
219	0xbc61bb8d	-0.013777626
220	0xbca5d12e	-0.020241346
221	0xbba26272	-0.0049555833
222	0xbaefe406	-0.0018302209
223	0xbc1b0ab2	-0.009462999
224	0xbc83fc3b	-0.016111484
225	0x3be8458b	0.0070883683
226	0xbc15d150	-0.009144142
227	0x3bc00eae	0.005861125
228	0xbc641ce5	-0.013922905
229	0xbb08768f	-0.002082262
230	0x3c212667	0.009835816
231	0xbc49fc7b	-0.012328262
232	0x3bc2f102	0.0059491405
233	0x3bcaeb62	0.0061926106
234	0xbc1114e3	-0.008855077
235	0xbbe0de88	-0.0068624653
236	0xbb6c0be5	-0.0036017832
237	0x3ca1c4a7	0.019747091
238	0xbc223733	-0.009900856
239	0x3bfe0956	0.007752578
240	0x3c03f6e7	0.008054472
241	0x3c4ae0b9	0.01238268
242	0x3c8217f1	0.015880557
243	0xbba458ff	-0.005015492
244	0x3c8624a8	0.016374901
245	0x3c676598	0.014123343
246	0xbc98dcf3	-0.018660044
247	0x3c26ced4	0.010181148
248	0xbc727c44	-0.014800135
249	0xbc0a6fd5	-0.008449514
250	0xbcc7eb95	-0.024404326
251	0xb9b7bc12	-0.00035044603
252	0xbb673fcd	-0.003528583
253	0xbbce9c87	-0.0063052806
254	0x3ba593fc	0.0050530415
255	0x3bb0cc49	0.0053954464

PE.patch_embed.0.bias f4 [48]
0	0x3d188821	0.037239198
1	0xbd1fa53b	-0.038975935
2	0x3b9ef7c4	0.0048513133
3	0xbd8545c0	-0.065074444
4	0x3c991753	0.01868788
5	0x3cb1f709	0.02172424
6	0x3cc422ff	0.023942469
7	0x3d348e78	0.04408118
8	0x3d1144c4	0.03546597
9	0xbd1b2348	-0.037875444
10	0x3d97e5ad	0.07416854
11	0xbdd10527	-0.10206061
12	0x3d1bb146	0.038010858
13	0xbcf26f2c	-0.029594027
14	0xbce5295f	-0.027973829
15	0x3bddf09b	0.006773067
16	0x3c70ad51	0.014689759
17	0x3d4259ae	0.047448806
18	0x3d596677	0.053076234
19	0x3ba2930c	0.004961377
20	0x3c65dd03	0.014029744
21	0x3d091e64	0.03347625
22	0x3d3d56cc	0.046225354
23	0x3c638277	0.013886086
24	0xbcf63ecf	-0.030059246
25	0xbbb51ac9	-0.0055268747
26	0xbd46f478	-0.048572987
27	0x3c53749f	0.012906223
28	0x3c9b19d0	0.018933207
29	0x3cc90a9a	0.024541188
30	0xbd2a9b5a	-0.04165206
31	0xb9b3c399	-0.00034287272
32	0x3d30c6ba	0.04315827
33	0xbd5f8a10	-0.054575026
34	0xbcca861d	-0.024722153
35	0xbc51a2f6	-0.012795201
36	0xbd0f1f87	-0.034942176
37	0xbc9876d9	-0.018611358
38	0xbcf8e5ce	-0.030383017
39	0xbca30e3d	-0.01990425
40	0xbd9dfae5	-0.0771387
41	0x3bbba48d	0.005726403
42	0x3d4a9d91	0.049466673
43	0x3d1b752a	0.037953533
44	0xbc0b4819	-0.008501076
45	0xbc38da1c	-0.01128247
46	0x3bd6908f	0.0065479944
47	0xbd625ef1	-0.055266324

TF.self_att.querys.weight f4 [48, 48]
0	0xbcc348b6	-0.023838382
1	0x3ddc3ef4	0.10754195
2	0xbdf33020	-0.118744135
3	0xbd7e7d32	-0.062131114
4	0x3dabe3e5	0.08393077
5	0x3e0cba68	0.13742983
6	0x3e0bcaf6	0.13651642
7	0x3d0ff0f2	0.035141893
8	0x3dce72a8	0.10080463
9	0xbdbbd2bc	-0.09171054
10	0xbe07a378	-0.13245952
11	0xbdc464da	-0.095895484
12	0x3da2763d	0.079327084
13	0xbd735667	-0.05940857
14	0xbdb9a3bb	-0.09064432
15	0xbd1c8e80	-0.038221836
16	0x3d9c1df5	0.07622901
17	0x3d717c2b	0.058956306
18	0x3e0e47ed	0.13894625
19	0x3caf8fc0	0.02143085
20	0x3dcc5528	0.0997718
21	0xbdacb986	-0.08433823
22	0x3dcabdd4	0.09899488
23	0xbe2774f9	-0.16353215
24	0x3d74af45	0.059737463
25	0x3db83639	0.08994717
26	0xbe20d39c	-0.15705723
27	0x3d46c354	0.048526123
28	0xbd53280b	-0.05155186
29	0x3d06de3d	0.032926787
30	0x3dc9d483	0.098549865
31	0x3dff0341	0.124517925
32	0x3d8ed1a7	0.06973582
33	0x3db21db7	0.08697074
34	0x3d827eb9	0.06371827
35	0xbdacebf4	-0.08443442
36	0xbdd53541	-0.10410548
37	0x3dc50905	0.09620861
38	0x3d67d330	0.05659789
39	0xbd86a2cd	-0.065740205
40	0x3e17581a	0.14779702
41	0x3e00913e	0.12555405
42	0xbdfadcb9	-0.12249131
43	0x3db04e0b	0.086086355
44	0xbe40572b	-0.18783252
45	0xbc694b9e	-0.01423922
46	0x3db4ec84	0.08834174
47	0xbdd198a4	-0.10234192
48	0x3b6284fe	0.0034564133
49	0x3d5830cc	0.05278091
50	0xbd339161	-0.043839816
51	0xbe01386c	-0.1261918
52	0xbe08610a	-0.13318267
53	0x3d2bdeca	0.041960515
54	0x3d09dcdf	0.033657905
55	0x3dc3eb29	0.095663376
56	0x3c4613cf	0.012089684
57	0x3c47507c	0.012165185
58	0x3e082b0d	0.13297673
59	0x3d6193f5	0.055072743
60	0xbdabbe3f	-0.08385896
61	0xbccfefbc	-0.025382869
62	0x3d9ab6bf	0.07554387
63	0xbe091b7c	-0.1338939
64	0xbe0595a0	-0.13045359
65	0x3df9581f	0.12175011
66	0xbc35fd6c	-0.011107784
67	0x3d0f01a9	0.034913693
68	0xbdb75ac0	-0.08952856
69	0xbdeefcd5	-0.11669318
70	0xbe0efd84	-0.13963896
71	0x3cc7502a	0.024330217
72	0x3dc89cc8	0.09795529
73	0x3d8e2e44	0.06942418
74	0xbd973e4a	-0.073849276
75	0x3ddf18c7	0.10893398
76	0x3d502a00	0.050821304
77	0xbdddf4a6	-0.108376786
78	0x3e098fea	0.13433805
79	0x3c0e93b7	0.00870221
80	0xbe04d721	-0.1297269
81	0xbdb6ba5d	-0.08922265
82	0xbc59da08	-0.013296612
83	0xbd675c59	-0.056484554
84	0xbdfeae04	-0.124355346
85	0x3df299a9	0.118457146
86	0xbc15f9b5	-0.009153773
87	0xbd69a7e3	-0.057044875
88	0xbcbb7368	-0.022882178
89	0xbdff4386	-0.12464051
90	0x3d5465a6	0.051854752
91	0xbc948012	-0.018127475
92	0x3daaf175	0.083468355
93	0xbdc5fd53	-0.096674584
94	0x3d14134b	0.03615121
95	0xbda5167e	-0.08060931
96	0xbdb025ef	-0.08600985
97	0x3d768754	0.060187653
98	0x3debbc3f	0.115105145
99	0xbc7d9fee	-0.015480025
100	0x3c9b2bb6	0.018941741
101	0xbdd4cee4	-0.10391024
102	0xbdc479de	-0.09593557
103	0xbd920b00	-0.07131004
104	0x3dbe12d9	0.09280939
105	0x3daf648c	0.085641
106	0xbdafcfda	-0.085845664
107	0x3d860bbb	0.06545206
108	0xbdf79c6c	-0.12090382
109	0xbe15d822	-0.1463323
110	0xbb9e264d	-0.004826343
111	0xbdc56b6d	-0.096396305
112	0x3ca5e11d	0.020248944
113	0x3de7673b	0.112989865
114	0x3d879cfe	0.06621741
115	0x3d7b3f9e	0.061339967
116	0xbd0bf810	-0.034172118
117	0xbd9e778f	-0.07737648
118	0xbd1dc0cd	-0.038513947
119	0x3e276e4c	0.16350669
120	0x3d3b3782	0.045707233
121	0x3d808886	0.0627604
122	0xbde62cf8	-0.11239046
123	0x3d8d375a	0.06895323
124	0x3da7db6f	0.081961505
125	0xbdc7c55c	-0.0975444
126	0xbceca306	-0.02888633
127	0x3d6d16d4	0.0578831
128	0x3df71941	0.12065364
129	0xbe216fb5	-0.15765269
130	0x3ce139c1	0.02749336
131	0xbd9f3486	-0.0777369
132	0xbd3f437f	-0.04669523
133	0x3daad9c4	0.08342317
134	0x3de6e3dd	0.1127393
135	0x3d53251e	0.05154907
136	0xbdabaae8	-0.08382207
137	0xbd35d0ca	-0.04438857
138	0x3e156f7f	0.14593314
139	0x3dc4f416	0.09616868
140	0x3db15ed9	0.08660669
141	0xbe0b8684	-0.13625532
142	0x3e035d8f	0.12828659
143	0xbc88a924	-0.016682215
144	0xbd0b97f3	-0.034080457
145	0xbc2ed36e	-0.010670526
146	0x3c923486	0.01784731
147	0x3d8130f0	0.06308162
148	0xbd551dfe	-0.052030556
149	0x3c9ae371	0.01890728
150	0xbd8291e2	-0.06375481
151	0xbd9d48d7	-0.07679909
152	0xbe013742	-0.12618735
153	0xbdfc4675	-0.12318126
154	0x3d579c20	0.052639127
155	0xbd838762	-0.064223066
156	0xbcde6ce8	-0.02715154
157	0xbde00d62	-0.109400526
158	0xbe0031c9	-0.12518992
159	0xbb69e2e8	-0.0035688225
160	0x3c6a38fe	0.014295815
161	0x3c47a862	0.012186142
162	0x3b9be2a4	0.0047572423
163	0x3de62353	0.11237206
164	0xbdde9f5c	-0.10870239
165	0xbd0aede4	-0.033918276
166	0x3d9d7724	0.0768874
167	0xbda99ae9	-0.082815
168	0x3daafc8d	0.083489515
169	0xbbc654fa	-0.0060526105
170	0xbe1e917f	-0.1548519
171	0xbdf5fd7e	-0.120112404
172	0xbdeb7995	-0.11497799
173	0x3e26209f	0.16223381
174	0xbd5813a0	-0.05275309
175	0x3e0bcc48	0.13652146
176	0xbe05002f	-0.12988351
177	0x3da4058a	0.08008869
178	0xbe0b343b	-0.13594143
179	0x3e20a9a1	0.15689708
180	0x3db1b9e9	0.08678038
181	0x3c1ce961	0.009577126
182	0x3e1f6adc	0.15568107
183	0xbdccc434	-0.0999836
184	0x3de57abe	0.11205052
185	0xbdd7c27b	-0.10535141
186	0xbe191392	-0.14948872
187	0xbdd239ba	-0.10264917
188	0x3cab1ea2	0.02088863
189	0x3d8a8a4a	0.06764658
190	0x3de172d6	0.11008231
191	0xbd44f338	-0.048083514
192	0xbd5a9791	-0.0533672
193	0x3dc5c12d	0.09655986
194	0xbcb9c71a	-0.022677947
195	0x3c848c6c	0.01618024
196	0xbe1251d1	-0.14289023
197	0xbe09e9e1	-0.13468124
198	0xbb0126e4	-0.0019707019
199	0x3d3178cc	0.04332809
200	0x3c7eee05	0.015559678
201	0x3b83ed6b	0.004026105
202	0xbe01ed27	-0.12688123
203	0x3d07ff9d	0.033202756
204	0x3ca08ea8	0.019599274
205	0x3e0c0305	0.13673027
206	0x3debe698	0.11518592
207	0xbd03e9f1	-0.032205526
208	0x3e090063	0.13379054
209	0xbd879f93	-0.06622233
210	0xbd8dcc86	-0.069237754
211	0x3d60080d	0.054695178
212	0x3cf4c2ad	0.029877985
213	0x3d1784c1	0.03699184
214	0x3daeb108	0.0852986
215	0xbc11c7ad	-0.008897704
216	0xbe08ee1a	-0.13372079
217	0xbd9d41dc	-0.07678577
218	0x3d9dffa4	0.07714775
219	0xbdf88c08	-0.12136084
220	0xbd63c196	-0.05560454
221	0x3e135333	0.14387207
222	0x3dd2bab7	0.10289519
223	0x3d98ca5f	0.07460474
224	0xbbb36d8c	-0.0054757055
225	0x3e00573d	0.12533279
226	0xbddadf7d	-0.10687158
227	0x3dcb6efd	0.09933279
228	0x3db0e47b	0.08637329
229	0xbdf278e9	-0.11839468
230	0xbdd24367	-0.10266762
231	0x3d5507a0	0.052009225
232	0x3db456e5	0.08805636
233	0xbd9420d0	-0.07232821
234	0x3dc15fe2	0.09442116
235	0x3e081e03	0.13292699
236	0xbd38c323	-0.045107972
237	0xbdfc7be4	-0.12328318
238	0x3cae2e88	0.021262422
239	0x3dbf7dfe	0.09350203
240	0xbe1cabd8	-0.15299928
241	0xbd788e2d	-0.060682464
242	0xbd623fc4	-0.055236593
243	0xbd830e97	-0.06399267
244	0xbba56a67	-0.0050480845
245	0x3dfb2b40	0.12264109
246	0x3d29cc4c	0.0414546
247	0xbda9dd10	-0.082941175
248	0xbde139ce	-0.109973535
249	0x3e0a1449	0.134843
250	0xbd31df63	-0.04342593
251	0x3c99a3f3	0.018754935
252	0x3df11ffa	0.11773677
253	0x3de96b78	0.11397451
254	0x3e1656e6	0.14681587
255	0xbd71af58	-0.05900511

TF.self_att.querys.bias f4 [48]
0	0xbd57788e	-0.052605204
1	0xbe0b9e2d	-0.13634558
2	0x3ca4f8dc	0.020138197
3	0x3d85df20	0.06536698
4	0xbd252a77	-0.0403237
5	0xbe029bfb	-0.12754814
6	0xbcde69c2	-0.027150039
7	0xbcf25b24	-0.029584475
8	0x3b2cfc5d	0.0026395537
9	0xbda086f0	-0.07838237
10	0x3daec2f7	0.0853328
11	0x3dd6154a	0.10453279
12	0xbe478818	-0.1948551
13	0x3d60b7b0	0.054862678
14	0x3e4f132b	0.20222156
15	0x3c768aac	0.01504771
16	0x3da2c56a	0.0794781
17	0x3d3d4c9b	0.046215635
18	0x3e208923	0.15677314
19	0xbe569b84	-0.20957762
20	0x3d4068f7	0.046975102
21	0x3bed48b8	0.0072413348
22	0x3e723bc7	0.23655616
23	0x3c6cce55	0.01445349
24	0xbd94d64d	-0.07267437
25	0x3d3a64df	0.045506354
26	0x3e13125d	0.14362474
27	0xbdf4c292	-0.11951174
28	0xbdcdc700	-0.10047722
29	0xbbbd8189	-0.005783264
30	0x3e00be03	0.12572484
31	0xbb5a3696	-0.0033296696
32	0xbe736a73	-0.23771076
33	0xbd0ac99f	-0.033883687
34	0x3d57a251	0.05264503
35	0xbcff348a	-0.031152982
36	0xbda09a35	-0.07841913
37	0xbe4896c3	-0.19588761
38	0x3dc7badb	0.09752437
39	0xbe3d2711	-0.18471934
40	0xbc21c42f	-0.009873434
41	0x3dea9b0f	0.11455356
42	0xbc854d5e	-0.016272243
43	0x3e2f9fd4	0.17150813
44	0x3ea5d9c4	0.32392704
45	0xbc64680e	-0.013940824
46	0x3c49c28d	0.012314451
47	0x3dea633a	0.11444707

TF.self_att.keys.weight f4 [48, 48]
0	0xbdb70235	-0.08935968
1	0xbde5be94	-0.112179905
2	0x3da765b9	0.08173699
3	0x3d0062e5	0.031344313
4	0xbda12cc9	-0.0786987
5	0x3d63bd29	0.05560032
6	0x3c893f11	0.016753705
7	0xbd8e3f02	-0.069456115
8	0xbd23d6f7	-0.03999993
9	0xbdada52c	-0.0847877
10	0x3e0c83d9	0.13722171
11	0xbd82a5e9	-0.06379301
12	0x3d09a4c9	0.033604417
13	0x3c01c8c8	0.007921405
14	0x3cbb5098	0.022865579
15	0x3e051fd4	0.13000423
16	0xbcb4899f	-0.02203828
17	0xbd9e010d	-0.07715044
18	0x3d83ee60	0.06441951
19	0x3d81a302	0.063299194
20	0xbdccc121	-0.09997774
21	0x3d2c38ef	0.042046484
22	0xbd83adb6	-0.06429617
23	0x3de860ff	0.113466255
24	0xbe178fd2	-0.14800957
25	0x3caade1a	0.02085786
26	0x3dd3f759	0.10349912
27	0x3dda83cb	0.10669669
28	0xbdd33493	-0.10312762
29	0xbdac3782	-0.08409025
30	0x3d823896	0.06358449
31	0xbd93be45	-0.072140254
32	0xbe083646	-0.13301954
33	0x3d950d15	0.07277886
34	0xbe0176af	-0.1264293
35	0xbdd96671	-0.10615242
36	0xbd321fc3	-0.04348732
37	0x3c1ad688	0.009450562
38	0x3d125e0c	0.03573422
39	0xbdce2af0	-0.100667834
40	0x3e075552	0.13216141
41	0xbd934aea	-0.07192023
42	0xbd795843	-0.06087519
43	0x3dff6e22	0.12472178
44	0x3cc64160	0.024201095
45	0xbc296848	-0.010339804
46	0xbd05258b	-0.032506507
47	0xbda60fe3	-0.08108499
48	0x3d10d895	0.0353628
49	0xbe107d61	-0.14110328
50	0xbd4f5182	-0.05061484
51	0x3daf81ef	0.08569705
52	0x3db9fbbf	0.0908122
53	0xbdac6586	-0.084178016
54	0xbde41c9f	-0.111382715
55	0x3dd7b54b	0.10532626
56	0xbd80c895	-0.06288258
57	0xbd439661	-0.047750834
58	0x3da9b433	0.082863234
59	0xbddd6853	-0.10810914
60	0x3d448c19	0.04798517
61	0x3d099a30	0.03359431
62	0xbdd58b30	-0.104269385
63	0x3df35b26	0.118826196
64	0x3d0f90e3	0.035050284
65	0xbe1560af	-0.14587663
66	0xbd12952b	-0.03578679
67	0xbca72137	-0.02040158
68	0x3d4f0f66	0.050551794
69	0x3c802dfd	0.015646929
70	0xbe1bfcdf	-0.15233181
71	0xbcaeea03	-0.02135182
72	0xbd16a7f3	-0.036781263
73	0xbc6e5946	-0.014547652
74	0x3dd314c3	0.10306694
75	0xbc7fb5bc	-0.015607294
76	0xbe100a04	-0.1406632
77	0xbdb739c9	-0.089465685
78	0xbc865043	-0.016395694
79	0x3dbaff3c	0.09130713
80	0x3db12817	0.08650225
81	0x3d268d1c	0.040661916
82	0x3e169e96	0.14708933
83	0x3d840927	0.06447058
84	0xbd5bb5a2	-0.053640015
85	0xbce6b5ee	-0.028162923
86	0xbba25f02	-0.0049551735
87	0x3d94c286	0.07263665
88	0xbc9aed9a	-0.018912125
89	0x3e1a6fa1	0.15081646
90	0xbc917228	-0.01775463
91	0x3cefc2a4	0.029267617
92	0xbdc12e20	-0.09432626
93	0x3e26d46d	0.16291972
94	0xbdae0f9c	-0.08499071
95	0x3cd10a10	0.025517493
96	0x3d63c8c2	0.05561138
97	0xbc1376d2	-0.009000497
98	0x3d077ef0	0.03308004
99	0x3e270769	0.1631142
100	0xbcd0ce59	-0.02548902
101	0x3e31bb63	0.17356639
102	0x3dcfc00b	0.10144051
103	0x3dc3dbef	0.095634334
104	0x3d9fda1f	0.07805275
105	0xbdd273cb	-0.10275992
106	0x3dfcf31d	0.12351058
107	0xbd234bff	-0.039867397
108	0x3d90861a	0.07056828
109	0x3d7b678b	0.061378043
110	0xbd2d5ea5	-0.04232659
111	0x3aba265c	0.0014202106
112	0x3d3d63b9	0.04623768
113	0xbe2d89ea	-0.16947141
114	0xbe1c328e	-0.1525366
115	0xbd41bc95	-0.047298986
116	0x3dba100f	0.09085094
117	0x3db9edf7	0.09078591
118	0x3b47d050	0.0030489154
119	0xbbb89d0a	-0.005633955
120	0x3d7a93d6	0.061176144
121	0xbd1b7a5b	-0.037958484
122	0x3c3393e0	0.010960549
123	0x3da502e2	0.080571905
124	0x3d1b81b8	0.037965506
125	0x3dc25736	0.094892904
126	0xbc81cf2f	-0.015845863
127	0xbd8fcf97	-0.070220165
128	0x3d5fc345	0.054629583
129	0x3c5ee9ec	0.013605576
130	0x3e1d9b70	0.15391326
131	0xbd760b04	-0.0600691
132	0x3e247979	0.16061963
133	0x3d98b70e	0.0745679
134	0xbdff4bc1	-0.12465621
135	0xbc365438	-0.011128478
136	0xbdba1602	-0.09086229
137	0x3d85972b	0.065229736
138	0xbd9e0967	-0.07716637
139	0x3ddf6ea9	0.109097786
140	0xbdf9a34d	-0.1218935
141	0x3dbf0e3e	0.09328888
142	0x3e0c46df	0.1369891
143	0xbde384c3	-0.11109307
144	0x3d3d61ce	0.046235852
145	0xbb7c20e3	-0.003847175
146	0x3e48c4c2	0.19606307
147	0xbe003331	-0.12519528
148	0x3d8f0d18	0.06984919
149	0xbd69776b	-0.05699865
150	0xbe094b75	-0.13407691
151	0xbdcbab6c	-0.099448055
152	0xbe116627	-0.14199124
153	0xbd23b358	-0.039965957
154	0xbdb90bb3	-0.090354346
155	0xbc56ab87	-0.013102419
156	0x3b22ef8c	0.002486202
157	0xbe0ab9ec	-0.13547486
158	0xbdcc15e9	-0.099651165
159	0x3d511d89	0.051053558
160	0x3c972eed	0.018454993
161	0x3e37a1e8	0.17932856
162	0xbdab7ce8	-0.08373433
163	0x3e0dd83a	0.13852015
164	0xbdb13eda	-0.08654566
165	0x3dca0bde	0.09865545
166	0x3e2320ea	0.15930524
167	0x3c78ef38	0.015193753
168	0xbdb8a128	-0.09015113
169	0xbcec6da2	-0.02886087
170	0x3d92ad82	0.07162
171	0xbc9088a6	-0.017643284
172	0x3e097be0	0.13426161
173	0xbe13bc61	-0.1442733
174	0x3e1f156b	0.15535514
175	0xbd9c12b7	-0.07620757
176	0xbc33b187	-0.010967619
177	0xbda75a6e	-0.08171545
178	0x3d674649	0.056463514
179	0x3d168a35	0.0367529
180	0xbdbee19f	-0.093203776
181	0x3b26b039	0.0025434627
182	0xbd172aea	-0.03690616
183	0x3e0361ec	0.12830323
184	0xbd9b41c4	-0.07580903
185	0xbc5a2e29	-0.0133166695
186	0x3d0c20a2	0.03421081
187	0x3cc0f021	0.023552002
188	0x3d83696f	0.06416594
189	0xbdd9933f	-0.10623788
190	0x3d9cc675	0.0765504
191	0xbd37b691	-0.044851843
192	0x3ad055b5	0.0015894683
193	0xbe078058	-0.13232553
194	0xbd8ebd05	-0.06969646
195	0x3ded718d	0.11593924
196	0xbd1726de	-0.0369023
197	0xbd67ca47	-0.05658939
198	0xbdd56b89	-0.10420901
199	0xbe12a102	-0.14319232
200	0x3dc88537	0.09791034
201	0xbd820d00	-0.06350136
202	0xbe0f3212	-0.13983944
203	0xbe112eef	-0.1417806
204	0x3d345311	0.04402453
205	0xbe00cc76	-0.12577996
206	0x3dac7ee7	0.08422642
207	0x3dff5b58	0.12468594
208	0x3b7f07c4	0.003891454
209	0xbe205924	-0.15659004
210	0xbcc01576	-0.023447733
211	0xbdce7866	-0.10081558
212	0x3dc0168e	0.09379302
213	0xbc4a8c87	-0.012362606
214	0xbd423228	-0.047411114
215	0x3bedcbe4	0.0072569717
216	0x3c5d0ed3	0.013492304
217	0x3de485e9	0.11158354
218	0xbaccb70d	-0.0015618518
219	0x3dbb573b	0.09147497
220	0x3dde1465	0.10843734
221	0x3d67d704	0.05660154
222	0x3db24884	0.087052375
223	0x3e083378	0.13300884
224	0x3dd3a37b	0.10333916
225	0x3d8fbbd1	0.07018245
226	0x3dd54c8c	0.10414991
227	0xbd978ba0	-0.07399678
228	0x3dd16fd1	0.102264054
229	0x3dffc8d8	0.1248948
230	0xbe0977a3	-0.13424544
231	0xbdbc38c9	-0.091905184
232	0x3cf0c63e	0.029391404
233	0xbc193a9c	-0.0093523525
234	0xbd42b3b8	-0.047534674
235	0xbd4c09ce	-0.049814038
236	0xbd8c31e3	-0.06845453
237	0x3e11f83c	0.1425485
238	0xbd607c09	-0.05480579
239	0x3dc498b1	0.09599436
240	0xbdccf1ce	-0.10007058
241	0xbdfc493d	-0.123186566
242	0x3d2c536c	0.042071745
243	0xbc5362e5	-0.012901996
244	0xbd9b0520	-0.07569337
245	0x3c8168f1	0.01579711
246	0x3dfd7466	0.12375717
247	0xba4d80fc	-0.00078393496
248	0x3d7e8ca1	0.062145833
249	0xbdb1d803	-0.08683779
250	0x3d8cdaea	0.06877692
251	0xbd0d6865	-0.034523387
252	0x3d977b3b	0.07396551
253	0xbdda41d2	-0.106570855
254	0x3e170b10	0.14750314
255	0x3d806aaf	0.06270348

TF.self_att.keys.bias f4 [48]
0	0x3d6e94d4	0.058247402
1	0xbde70839	-0.11280865
2	0xbdc468bf	-0.09590291
3	0x3dfd74ac	0.12375769
4	0x3d9119ac	0.07084975
5	0xbd8b8d10	-0.06814015
6	0xbe11bf7f	-0.14233206
7	0x3e0f2b53	0.1398137
8	0xbbab6e4d	-0.0052316547
9	0x3d8e6d53	0.06954446
10	0xbcefb46a	-0.029260833
11	0x3d8af6a6	0.06785326
12	0xbe0ec177	-0.13940988
13	0x3e1180d3	0.14209299
14	0xbdd021ee	-0.101627216
15	0xbde0c119	-0.109743305
16	0x3dbd9b94	0.0925819
17	0xbd3b8d05	-0.045788784
18	0x3c414880	0.0117970705
19	0x3cd0e77b	0.025501003
20	0xbda27ab8	-0.07933563
21	0xbd55c696	-0.05219134
22	0x3de93133	0.11386337
23	0xbd4a4154	-0.049378708
24	0x3dd51432	0.104042426
25	0xbe08a737	-0.13345037
26	0x3dfa0053	0.12207093
27	0xbe09cbba	-0.13456622
28	0x3e0ca1ad	0.1373355
29	0x3dc4d8e7	0.09611683
30	0xbbd10a12	-0.0063793743
31	0xbd38336a	-0.044970907
32	0xbe0be774	-0.13662511
33	0x3d9815f0	0.07426059
34	0xbd0249d9	-0.031808708
35	0xbcfe76ca	-0.031062502
36	0x3d2db583	0.04240943
37	0x3e137646	0.14400586
38	0x3dc02cb2	0.09383525
39	0x3ddb05b7	0.106944494
40	0x3de9b281	0.11411
41	0xbd5363b8	-0.05160877
42	0xbde2b8b2	-0.11070384
43	0xbca0d331	-0.019631954
44	0x3d3ef460	0.046619773
45	0x3791d95b	1.7386561e-05
46	0xbcd57479	-0.026056515
47	0xbbee308e	-0.0072689718

TF.self_att.values.weight f4 [48, 48]
0	0xbdc5b981	-0.09654523
1	0x3db24e3a	0.08706327
2	0xbe094ea0	-0.134089
3	0x3e0f11cf	0.13971637
4	0xbdd3b45b	-0.103371345
5	0x3db1565f	0.08659052
6	0xbd29fe41	-0.04150224
7	0x3dd1a6dd	0.10236905
8	0x3d5c7ad2	0.053828068
9	0x3d85353b	0.065042935
10	0x3d08f394	0.03343542
11	0xbcc31dba	-0.023817886
12	0xbdd1c3f5	-0.10242454
13	0x3d71c497	0.059025373
14	0xbdc43dd3	-0.095821045
15	0xbc8c814c	-0.017151497
16	0xbca8d8b2	-0.02061114
17	0x3d77f210	0.060533583
18	0x3e1b12fc	0.1514396
19	0xbd984cc1	-0.07436515
20	0x3d19e230	0.037569225
21	0x3e0b7b38	0.13621223
22	0xbd690455	-0.056888897
23	0xbcef2d7b	-0.029196491
24	0x3de8f70e	0.11375247
25	0x3ce81e2a	0.028334696
26	0xbe2660f0	-0.16247916
27	0xbd96fb27	-0.07372122
28	0xbce186e2	-0.027530137
29	0xbd4f5cfb	-0.050625782
30	0xbd8ecc68	-0.06972581
31	0x3d21a82c	0.03946702
32	0xb9663c7f	-0.00021957046
33	0xbd314ab4	-0.043284133
34	0x3d994bdf	0.074851744
35	0x3d91e38a	0.07123478
36	0x3db080cd	0.08618317
37	0x3dc32698	0.095288455
38	0x3e051f06	0.13000116
39	0x3dc6bb53	0.09703698
40	0x3db81059	0.08987493
41	0xbc65bc40	-0.014021933
42	0xbe1c6f92	-0.15276936
43	0xbd94bc1b	-0.07262441
44	0xbccf436a	-0.0253007
45	0x3c5246ee	0.012834294
46	0x3d5a972a	0.053366818
47	0x3dc331c2	0.09530975
48	0xbd833e25	-0.064083375
49	0xbe0cdfbf	-0.13757227
50	0x3df4586b	0.11930927
51	0xbda6e1d2	-0.081485406
52	0x3dc1e23e	0.094669804
53	0xbd12c548	-0.035832673
54	0xbd8b7d4d	-0.068110086
55	0xbdcbfbc2	-0.09960128
56	0xbd8e9ff4	-0.069641024
57	0xbd5a64a7	-0.053318646
58	0x3e1c25ce	0.15248796
59	0xbc6ad0f0	-0.014332041
60	0xbc864cbd	-0.016394014
61	0xbe22184c	-0.15829581
62	0x3dbfda9b	0.093678676
63	0x3db686f4	0.08912459
64	0x3df3fc7e	0.119133934
65	0xbe2ab7a0	-0.1667161
66	0xbc878066	-0.016540717
67	0xbd8bf79c	-0.06834337
68	0x3dfa2d1d	0.12215636
69	0x3e02ddf7	0.12779985
70	0xbdea8652	-0.11451401
71	0x3dd8a950	0.10579169
72	0x3ca917ed	0.020641292
73	0xbd79a60b	-0.060949367
74	0x3cdc0c2b	0.02686127
75	0x3b0daebd	0.0021619045
76	0xbdadaab6	-0.08479826
77	0xbe166ae5	-0.14689215
78	0xbdecde9b	-0.11565896
79	0xbe008fb9	-0.12554826
80	0x3c78bc8d	0.015181673
81	0xbdf260e1	-0.118348844
82	0xbd96d881	-0.073655136
83	0xbd50c159	-0.05096564
84	0xbd1e4f11	-0.038649622
85	0xbd6c6fbb	-0.057723742
86	0x3d100fbe	0.035171263
87	0x3d7523d6	0.05984863
88	0xbe12d4cd	-0.1433899
89	0xbd5d742e	-0.054065876
90	0xbd58925b	-0.05287395
91	0xbdb0e8c6	-0.08638148
92	0xbd32cba8	-0.043651253
93	0x3bad5a66	0.0052903173
94	0x3dff26b3	0.12458553
95	0x3de038d4	0.10948339
96	0x3d435cfa	0.04769609
97	0x3dd8f90f	0.10594379
98	0x3d43a9cb	0.04776935
99	0x3d3f5334	0.046710208
100	0xbdee863e	-0.116466984
101	0xbd25acf3	-0.04044814
102	0xbdbb4f17	-0.091459446
103	0xbdd7f6ee	-0.10545145
104	0x3b5c3421	0.0033600407
105	0xbdb4ff9b	-0.088378154
106	0x3d14a000	0.0362854
107	0x3e1ea3aa	0.1549212
108	0x3c754b2e	0.0149715375
109	0xbdc19369	-0.094519444
110	0x3e08ee49	0.13372149
111	0x3d00d742	0.031455286
112	0xbcc7ecf9	-0.02440499
113	0xbddfa5cd	-0.10920296
114	0x3d84b646	0.064800784
115	0x3d7e81da	0.062135555
116	0xbd056aeb	-0.032572668
117	0xbceeb21a	-0.02913766
118	0x3cfc7162	0.030815784
119	0xbddc1087	-0.1074534
120	0x3dda8997	0.106707744
121	0xbdee41bf	-0.11633634
122	0xbe069b0d	-0.13145085
123	0x3dadfd7b	0.08495613
124	0xbda6da40	-0.08147097
125	0x3d032c56	0.032024704
126	0x3d89e994	0.067340046
127	0xbd97919c	-0.0740082
128	0x3ddc6821	0.107620485
129	0x3c994d62	0.018713657
130	0x3daa3e63	0.083126806
131	0x3e0563b7	0.1302632
132	0xbc4b94e6	-0.012425637
133	0x3dc56b42	0.096395984
134	0xbd9ab015	-0.07553116
135	0x3d70326e	0.058641843
136	0x3df2b7b8	0.11851448
137	0xbdc1ceeb	-0.094632946
138	0xbbe8d4dd	-0.0071054534
139	0x3d9dc283	0.07703116
140	0x3dbee54b	0.09321078
141	0x3cf4dffc	0.02989196
142	0x3c81382a	0.015773851
143	0x3de67331	0.1125244
144	0xbd04700d	-0.032333422
145	0x3cce09a1	0.025151076
146	0xbb3896aa	-0.0028165975
147	0xbd2a93ad	-0.04164474
148	0xbe07d899	-0.13266219
149	0xbbe6b599	-0.007040691
150	0xbe0d1a68	-0.13779604
151	0xbda841b3	-0.08215656
152	0x3de029db	0.10945483
153	0x3d9860e7	0.07440358
154	0xbd9c817b	-0.07641884
155	0xbc951a83	-0.018201118
156	0x3e06d7a3	0.13168196
157	0x3e0c2f37	0.13689886
158	0xbccd78c4	-0.025082
159	0xbdf1528d	-0.117833234
160	0xbdce54e4	-0.10074785
161	0x3b3de203	0.0028973825
162	0xbccbf1ec	-0.02489563
163	0x3d2884c5	0.041142244
164	0x3d93acd3	0.07210698
165	0x3d8ea860	0.06965709
166	0x3deba106	0.11505322
167	0x3de306ce	0.11085282
168	0xbcc96867	-0.024585916
169	0x3d648e9b	0.05580006
170	0x3dfb43e6	0.1226881
171	0xbc910710	-0.017703563
172	0xbd3d62ab	-0.046236675
173	0xbd32f161	-0.043687228
174	0x3cc3f8f1	0.023922415
175	0xbdb9f20c	-0.0907937
176	0xbde8a035	-0.11358682
177	0xbce8181a	-0.028331805
178	0xbd1efc00	-0.038814545
179	0xbd8a9c47	-0.06768089
180	0x3dbbf6fb	0.09177967
181	0xbc7f70f3	-0.015590894
182	0xbdec19f7	-0.1152839
183	0xbd1245d8	-0.03571114
184	0x3d47eecc	0.04881172
185	0x3c2e4e2f	0.010638758
186	0xbc5cb448	-0.013470717
187	0xbdbda6e8	-0.092603505
188	0x3d3c62af	0.04599255
189	0xbd9ac795	-0.075575985
190	0xbd65f5ae	-0.0561425
191	0xbd6bd568	-0.057576567
192	0x3de9f0fc	0.11422917
193	0xbc72fcd3	-0.014830786
194	0xbd657eea	-0.056029238
195	0xbe06f054	-0.13177615
196	0xbd3c4343	-0.045962583
197	0xbd70be50	-0.058775246
198	0xbd223367	-0.039599802
199	0x3c860003	0.016357427
200	0xbd47a2ae	-0.048739128
201	0x3d8676b1	0.06565607
202	0x3d2f92fd	0.04286479
203	0xbc38e1e6	-0.011284327
204	0xbe062855	-0.13101323
205	0x3c439a96	0.011938712
206	0x3bdedb38	0.0068010353
207	0xbbfb2a7c	-0.0076649766
208	0x3df00ab0	0.117207885
209	0xbdf10507	-0.11768537
210	0xbe06096d	-0.13089533
211	0xbd617597	-0.055043783
212	0xbe02b298	-0.1276344
213	0xbe1dde60	-0.1541686
214	0xbd0753ec	-0.03303902
215	0xbd33f005	-0.043930072
216	0x3e07442d	0.13209601
217	0x3caba8ad	0.020954454
218	0xbd875fda	-0.06610079
219	0x3d551182	0.05201865
220	0xbc9cd7cb	-0.019145867
221	0xbe1dad68	-0.1539818
222	0x3caf04de	0.021364626
223	0xbde86cd1	-0.1134888
224	0xbda393bb	-0.07987162
225	0xbdd3e37e	-0.10346125
226	0x3c9c746e	0.019098487
227	0xbd5b3b7e	-0.053523533
228	0x3e03fdfe	0.12889859
229	0xbc071269	-0.008244135
230	0x3d095b31	0.033534233
231	0x3c63ea78	0.013910882
232	0x3d912c79	0.070885606
233	0xbd9d05fc	-0.07667157
234	0xbd5428bc	-0.05179666
235	0xbdd08e0f	-0.101833455
236	0xbe06907a	-0.13141051
237	0xbdaa2efc	-0.08309743
238	0xbdcd4dbf	-0.100245945
239	0xbbb047ac	-0.0053796377
240	0x3e01e5c0	0.12685299
241	0xbe1dfacb	-0.15427701
242	0x3db07556	0.0861613
243	0x3e07ced2	0.1326249
244	0xbdf427eb	-0.11921676
245	0xbcc09313	-0.02350763
246	0xbdc2f936	-0.095201895
247	0x3d700d08	0.058606178
248	0x3ddf34af	0.108987205
249	0x3c2a1be3	0.010382625
250	0xbcc14b1b	-0.023595383
251	0xbba832af	-0.005132995
252	0xbd9a3762	-0.07530095
253	0xbd9384f5	-0.07203094
254	0x3cb013c7	0.021493806
255	0xbc84de3f	-0.016219256

TF.self_att.values.bias f4 [48]
0	0x3e06abf3	0.13151531
1	0xbd6d5e42	-0.05795122
2	0xbe0932db	-0.13398306
3	0xbcc7dd33	-0.024397468
4	0x3dc0b80f	0.094101064
5	0xbdb0d2f7	-0.08633988
6	0xbd8da378	-0.06915945
7	0xbdd5b49b	-0.104348384
8	0x3ac80fc3	0.0015263486
9	0xbdf98b4c	-0.12184772
10	0x3d8d8256	0.06909625
11	0xbddde6e0	-0.108350515
12	0x3ccaa202	0.024735454
13	0xbdae450e	-0.08509265
14	0xbddad04c	-0.10684261
15	0x3d95cc6d	0.07314382
16	0x3e156028	0.14587462
17	0x3dba7d62	0.09105946
18	0x3dee0f2c	0.116239876
19	0xbda429ca	-0.08015783
20	0x3e0b9d5c	0.13634247
21	0x3cb71729	0.02234991
22	0x3e07e86a	0.13272253
23	0xbe045a15	-0.12924989
24	0x3d0e6612	0.03476531
25	0x3bf7f32d	0.0075668306
26	0x3d8fc12b	0.07019266
27	0xbddd0036	-0.10791056
28	0x3cb570da	0.022148538
29	0x3ca54ec9	0.02017917
30	0xbd6745a7	-0.05646291
31	0xbdb184af	-0.086678855
32	0xbd8a3b68	-0.06749612
33	0x3cd2dd87	0.025740398
34	0xbd9f9260	-0.07791591
35	0xbcc7401a	-0.024322558
36	0x3cff883e	0.031192895
37	0xbc9775df	-0.018488823
38	0xbb191e25	-0.0023363915
39	0xbd3f5b4a	-0.04671792
40	0xbdea7f24	-0.114500314
41	0xbd73e679	-0.059545968
42	0xbd83691c	-0.064165324
43	0x3d0e06a9	0.03467432
44	0xbce7dcd1	-0.028303536
45	0x3d4d8ec1	0.05018497
46	0xbd1419be	-0.036157362
47	0xbe03f754	-0.12887317

TF.self_att.out_project.weight f4 [48, 48]
0	0x3d5643e6	0.052310847
1	0xbcc0562a	-0.023478586
2	0xbd37da56	-0.044885956
3	0xbcf58bc8	-0.02997388
4	0x3e03c232	0.12867048
5	0x3c7b662c	0.015344184
6	0x3dae132a	0.08499749
7	0x3d725aa3	0.05916847
8	0x3dd46f68	0.103728116
9	0xbe10ec2a	-0.1415259
10	0xbdf15184	-0.11783126
11	0x3b4f6ba6	0.0031649857
12	0xbd935ede	-0.07195829
13	0x3d521a52	0.051294632
14	0x3c60f6e7	0.013730741
15	0xbcd17801	-0.025569918
16	0x3d6ccf51	0.0578149
17	0x3d7e047b	0.06201599
18	0xbdfa5b3b	-0.12224432
19	0xbd33502b	-0.043777626
20	0xbe0936dc	-0.13399833
21	0x3dba9eae	0.09112297
22	0xbd5eb1ec	-0.0543689
23	0xbd9ed10d	-0.07754717
24	0xbde80e1f	-0.113308184
25	0xbd8c9668	-0.06864625
26	0xbdea8103	-0.11450388
27	0xbd4acd58	-0.049512237
28	0x3da728d3	0.081620835
29	0xbdc67a88	-0.0969134
30	0xbb064c82	-0.002049238
31	0xbd6aa68a	-0.05728773
32	0x3c4e95c5	0.01260895
33	0xbb887e31	-0.004165434
34	0xbe015826	-0.12631282
35	0x3e1200f6	0.14258179
36	0x3cb73195	0.02236251
37	0x3c523b79	0.012831562
38	0xbd4e0e7c	-0.050306782
39	0x3e03842b	0.12843387
40	0x3da448d4	0.08021703
41	0xbbe5daad	-0.0070145936
42	0xbe00f313	-0.12592725
43	0x3cc86689	0.024462955
44	0xbdd4f699	-0.10398597
45	0x3da09749	0.07841355
46	0x3ddb5ee6	0.1071146
47	0xbce2660b	-0.027636549
48	0xbd6676c0	-0.056265593
49	0xbd256540	-0.040379763
50	0x3ded78e3	0.11595323
51	0x3db79298	0.089635074
52	0xbda5df91	-0.080992825
53	0x3d611163	0.054948222
54	0xbdd15c9f	-0.10222744
55	0x3d7d9eab	0.061918896
56	0x3def3e1b	0.116817676
57	0xbda21273	-0.07913675
58	0xbe17d26b	-0.14826362
59	0x3c424d8c	0.011859309
60	0x3d14da02	0.03634072
61	0xbd784ce5	-0.060620207
62	0xbbea2875	-0.007145936
63	0xbc9c5953	-0.019085562
64	0xbce6d580	-0.028177977
65	0x3e265ee6	0.16247138
66	0xbe02edce	-0.12786028
67	0x3d13533a	0.035968043
68	0x3e0fa45c	0.14027542
69	0x3df08f61	0.11746097
70	0xbde5f898	-0.11229056
71	0xbe04cdb4	-0.12969095
72	0xbd790ade	-0.06080138
73	0x3d311b06	0.043238662
74	0xbccae271	-0.024766179
75	0x3e210ab6	0.15726742
76	0x3db197fa	0.08671565
77	0xbd5529da	-0.052041866
78	0xbd2c91f9	-0.042131398
79	0x3c96905b	0.01837938
80	0x3c520564	0.012818668
81	0xbe3fe105	-0.18738182
82	0xbdff309e	-0.12460445
83	0x3e515176	0.20441231
84	0xba42c3b6	-0.0007429676
85	0xbde5725a	-0.112034515
86	0x3db31842	0.08744861
87	0xbd04905d	-0.032364238
88	0xbe15c466	-0.14625701
89	0xbd70d991	-0.058801237
90	0x3e3b5f42	0.18298057
91	0xbe1f308a	-0.1554586
92	0xbdc36caa	-0.095422104
93	0xbd8144be	-0.0631194
94	0xbdbe3dd8	-0.092891395
95	0x3c62c195	0.013840099
96	0x3da9f0a2	0.0829785
97	0xbdebb50e	-0.11509143
98	0x3d9bfdd6	0.07616775
99	0xbd0d50b3	-0.03450079
100	0x3e0a5650	0.13509488
101	0x3cb77ce0	0.022398412
102	0xbe3ac575	-0.18239386
103	0x3c6f59f3	0.014608848
104	0x3d89eca9	0.067345925
105	0xbd94fa7c	-0.072743386
106	0x3d09f625	0.033682007
107	0x3da40147	0.08008056
108	0x3e1cdc39	0.15318383
109	0x3c0df009	0.008663186
110	0xbcf0e3c2	-0.029405478
111	0xbb0c741e	-0.0021431516
112	0xbded2f51	-0.115812905
113	0x3e3eb262	0.18622735
114	0xbe2f52cc	-0.17121428
115	0x3da1cc58	0.079003036
116	0x3de43edf	0.11144804
117	0x3da2211d	0.07916472
118	0xbde69370	-0.1125859
119	0x3de5b30c	0.11215791
120	0xbdbbe225	-0.09173993
121	0x3d8c3d84	0.06847671
122	0xbd85422a	-0.065067604
123	0x3cf24c3d	0.029577369
124	0x3d82b1a4	0.063815385
125	0xbd190ab3	-0.03736372
126	0x3d1dd4c4	0.038532987
127	0xbc356b28	-0.011072911
128	0xbdb6e60b	-0.08930596
129	0xbcfba5a8	-0.03071864
130	0x3df710bd	0.120637394
131	0x3dc76f18	0.09737986
132	0xbe32e6d1	-0.17470862
133	0x3a61ebc6	0.0008618202
134	0x3cee5503	0.029093271
135	0x3df41bae	0.11919342
136	0x3bac5ab2	0.005259835
137	0x3b8108da	0.0039378228
138	0x3e22d977	0.15903269
139	0xbe3810df	-0.17975186
140	0x3df385a1	0.11890722
141	0xbe394eab	-0.18096416
142	0xbe0d9c10	-0.13829064
143	0x3e3c90ef	0.18414663
144	0x3daba959	0.0838191
145	0x3d214a3e	0.039377443
146	0x3d40c289	0.047060523
147	0xbd63fbbd	-0.05566
148	0xbd23b070	-0.039963186
149	0xbd613cb7	-0.054989543
150	0xbdd01fb4	-0.10162297
151	0x3cd5e56d	0.026110375
152	0xbb14cf11	-0.002270643
153	0x3df74818	0.12074298
154	0xbce5932e	-0.028024282
155	0x3deebe54	0.11657396
156	0x3dfd63f0	0.12372577
157	0x3ce46cca	0.027883906
158	0x3bc1b14b	0.0059110275
159	0xbdfdc9d1	-0.12392009
160	0x3da36fbf	0.07980298
161	0x3da0d473	0.078530215
162	0xbd146ece	-0.036238484
163	0xbe17124c	-0.14753073
164	0x3d2797cf	0.04091626
165	0x3d326f70	0.043563306
166	0x3df9a058	0.12188786
167	0xbc51fc7c	-0.012816545
168	0xbd81c69f	-0.06336712
169	0x3d978d24	0.07399967
170	0x3dd6f67b	0.10496231
171	0xbd9253e6	-0.071449086
172	0xbe0d48d8	-0.13797319
173	0xbcb8c2d6	-0.022553843
174	0x3da66ccd	0.08126221
175	0x3cc297a7	0.023753954
176	0xbe153f8c	-0.14575022
177	0xbdd2aa0e	-0.102863416
178	0xbdb72033	-0.089416884
179	0xbc81daca	-0.015851397
180	0xbde30d0a	-0.110864714
181	0x3df6fa70	0.12059486
182	0x3d0eda1f	0.034875985
183	0x3d0cd33f	0.034381147
184	0xbe16cd0d	-0.14726658
185	0x3d11fab0	0.035639465
186	0xbcdfb333	-0.027307129
187	0x3de86e07	0.11349111
188	0x3e4feb6d	0.20304652
189	0x3d973beb	0.07384475
190	0xbd2a3577	-0.041554894
191	0xbc92cb6a	-0.017919261
192	0x3e0e5aa5	0.13901766
193	0x3d2b7b68	0.041865736
194	0xbd74ab05	-0.05973341
195	0xbdb5c6ed	-0.08875833
196	0x3e04b24f	0.12958644
197	0xbe0e6ffb	-0.13909905
198	0x3e1ef4e1	0.15523101
199	0xbdd0890b	-0.10182389
200	0xbe38fa09	-0.18064131
201	0xbadf7874	-0.0017049448
202	0x3e2312b0	0.15925097
203	0xbcf5f5a3	-0.030024355
204	0xbe066cbc	-0.13127416
205	0x3d9b621a	0.07587071
206	0x3dd808fe	0.1054859
207	0xbc889913	-0.016674554
208	0x3dd4c92b	0.10389932
209	0xbd9403db	-0.07227298
210	0x3df5ce12	0.120021954
211	0x3de0123a	0.109409764
212	0xbe3419ef	-0.17588018
213	0x3de029e5	0.10945491
214	0x3d5a65d0	0.053319752
215	0xbcd2acd5	-0.025717178
216	0xbd73c4e4	-0.05951394
217	0xbb2ac5da	-0.002605787
218	0xbdb1021e	-0.08642982
219	0x3d834b9a	0.06410904
220	0xbae2bd1a	-0.0017298788
221	0x3da37f34	0.079832464
222	0xbc1c81a5	-0.009552394
223	0x3d48c49a	0.04901562
224	0x3d78b591	0.06072003
225	0x3d8aea31	0.0678295
226	0x3caf69f8	0.021412835
227	0xbdd4a448	-0.10382897
228	0xbd46fe0c	-0.04858212
229	0x3e01da9b	0.12681048
230	0xbe264857	-0.16238533
231	0xbe126e8f	-0.14299987
232	0x3e004edc	0.12530082
233	0xbdcdb48e	-0.10044204
234	0xbda9c51b	-0.08289548
235	0x3e007ed5	0.12548383
236	0xbdcc352f	-0.099710815
237	0x3e47213b	0.1944627
238	0x3d7c2817	0.06156167
239	0xbe1cccf8	-0.15312564
240	0xbdedfe6b	-0.11620792
241	0xbde6efc1	-0.11276198
242	0xbcea5c6f	-0.028608529
243	0xbdd073eb	-0.101783596
244	0x3d51708e	0.05113273
245	0xbddaefec	-0.10690293
246	0x3cbf5ca9	0.023359613
247	0x3d7e6eb0	0.06211728
248	0xbd1e1423	-0.038593423
249	0xbcf546c4	-0.02994097
250	0x3e6d888e	0.23196623
251	0x3e37c106	0.17944726
252	0xbd0b29bf	-0.03397536
253	0xbd2bbb1d	-0.041926492
254	0xbdfaec95	-0.12252156
255	0x3e0ecfde	0.13946483

TF.self_att.out_project.bias f4 [48]
0	0x3da870c7	0.082246356
1	0xbde7aaec	-0.11311898
2	0x3db4aa80	0.08821583
3	0x3c0587f6	0.008150091
4	0xbd6b1374	-0.0573916
5	0xba2d7eb8	-0.0006618309
6	0xbd7b73bf	-0.06138968
7	0x3de8c660	0.11365962
8	0x3bb19c4f	0.0054202448
9	0xbdfdcf12	-0.12393011
10	0xbd5d01f0	-0.053956926
11	0x3dea9adc	0.11455318
12	0x3e0f3801	0.13986208
13	0xbd9a86a6	-0.075452134
14	0xbd4616f9	-0.048361752
15	0x3d62cbc6	0.055370115
16	0x3cc385b6	0.02386747
17	0x3dadc136	0.08484118
18	0xbdad3b8e	-0.08458625
19	0x3d36f1d6	0.044664226
20	0xbcb88312	-0.022523437
21	0x3db781d8	0.089603126
22	0x3e08364e	0.13301966
23	0x3e0b97c5	0.13632114
24	0xbc04187b	-0.008062477
25	0x3d58ef0b	0.052962344
26	0xbce581eb	-0.028016051
27	0xbd4e3e91	-0.050352637
28	0x3dcf6b1c	0.10127851
29	0xbdb0de43	-0.08636143
30	0xbd336bfe	-0.04380416
31	0xbdc18e04	-0.094509155
32	0x3dbe96f8	0.09306139
33	0x3d38b772	0.045096822
34	0xbd75eb5c	-0.06003891
35	0xbdb309c1	-0.08742095
36	0x3dfe7ebf	0.12426519
37	0xbde765a1	-0.11298681
38	0xbcd61b4c	-0.026136063
39	0xbdaa2d8a	-0.08309467
40	0xbe217011	-0.15765406
41	0x3de87741	0.11350871
42	0x3d65bc8e	0.056088023
43	0xbd0eaf73	-0.03483529
44	0xbc18e40d	-0.009331715
45	0x3ceafc90	0.028684884
46	0x3d1f89be	0.03894972
47	0xbd9ccea9	-0.07656605
